models/decoder/sequential_decoder_length20.pth (torch, 342145 bytes, 11 tensors)

model.decoder.0.weight f4 [20, 148, 2, 2]
-0.41157186 -0.286015 -0.83449674 -0.41053075 -0.014131116 -0.021807423 -0.005269227 0.2541098
0.08895004 -0.9132117 -0.2331392 -0.35295126 -0.03887734 0.049828805 0.20719583 0.07855274
-0.057664018 0.20261048 -0.1537027 0.16103181 -0.1266875 -0.26700026 -0.28964728 -0.29075962
0.0033877944 -0.029652206 -0.037759133 -0.023237562 0.012158911 -0.043657854 -0.13827164 0.021358047
-0.32841927 -0.67571485 -0.118603945 -0.82497436 -0.19233729 0.58437073 0.050503537 0.18935768
0.14186555 -0.851646 0.35876903 -1.0235828 0.09445981 0.18408966 -0.7319872 -0.22256292
-0.04855701 -0.2639584 0.20273393 0.13195048 -0.69813704 -0.27411342 0.1434552 -0.51777846
-0.11288619 -0.118338004 0.038186125 -0.06497919 -0.24770308 0.08083839 0.3226732 -0.07197929
0.04228217 -0.34483513 0.014529537 0.08771393 0.23025006 -0.20279314 -0.017050626 0.0803138
-0.12068615 -0.077832595 -0.07295123 -0.09992983 -0.14920741 -0.108343184 -0.24457878 -0.098290734
-0.0203438 0.036572322 -0.14118008 -2.036259 0.05914113 -0.05661209 0.02792606 0.12378756
-0.90318465 0.20860213 0.52610224 -0.038323507 0.13731858 0.1586249 -0.06031056 0.06889893
-0.110779494 -0.10293375 0.3000151 -0.1830592 0.22974531 -0.7645541 0.49623677 -0.059464287
0.08269 0.048919328 0.07263965 -0.026682846 -0.2625255 0.19762139 -0.024683112 0.06399341
0.0945741 -0.033080783 -0.0020015833 -0.024549134 0.07347007 0.025236314 -0.0023884904 -0.13396133
-0.4476984 0.17160378 -0.15678006 -0.1893723 -0.013909486 0.032996967 0.12470132 -0.15214364
-0.44311014 0.30839264 0.08694454 0.1783448 0.14709993 -0.06967278 -0.20950086 0.16228396
-0.7888927 -0.17604643 0.05307206 -0.34601521 -0.17765132 -0.09166535 0.14656658 -0.04015014
-0.00021329129 -0.07904328 -0.021180743 -0.0487284 -0.07208335 -0.19240355 -0.09256897 -0.043712486
0.42009994 0.093832575 0.15859929 0.31302783 0.08078621 -0.15606734 0.030336697 -0.0012576698
-0.018710403 -0.022555774 0.083124414 0.026568038 0.40138492 0.2996356 0.24445541 0.10484169
0.007959035 0.021346992 0.15310892 -0.057001945 0.13205734 -0.017737603 -0.12011632 -0.0209949
-0.31190798 0.05728429 0.14612852 -0.088531 -0.012335657 0.012012909 0.0004704659 -0.04505898
0.18818437 0.080283 0.32994854 -0.4317202 -0.09072494 -0.12637408 0.0844559 0.069352746
-0.78034097 0.4228657 0.15762907 -0.39419103 0.060511433 0.0040075523 -0.033799283 -0.01266763
0.003332774 0.028473563 -0.06874565 0.4559598 -0.04799064 -0.064624876 -0.05874074 -0.061622433
0.26980993 0.14797278 0.14047642 -0.4390387 -0.03980147 0.044298653 -0.3892905 -0.042476017
-0.03122332 0.015281714 -0.0070475447 -0.01838918 -0.10025963 0.041218963 -0.0859348 -0.117818765
-0.6905336 -0.13754186 -0.21590328 -0.083572745 -0.7795164 -0.51494473 0.11709781 -0.07545276
-0.11435574 0.27232537 -0.4268311 -0.27567756 0.07439017 -0.06707984 -0.1870155 -0.09644167
0.51464516 -0.23979232 -0.090253636 -0.2878961 -0.07106303 -0.029136404 -0.0047950773 0.031845316
0.1506114 -0.10762313 -0.21838081 -0.058409348 0.0031873363 -0.03774828 0.023436973 0.08069691
00000000: 8cb9 d2be 8f70 92be 94a1 55bf 1631 d2be
00000010: 3286 67bc 7ba5 b2bc 7ba9 acbb ae1a 823e
00000020: 702b b63d 3ec8 69bf 0bbc 6ebe 07b6 b4be
00000030: d83d 1fbd 4a19 4c3d 252b 543e 42e0 a03d
00000040: 1b31 6cbd 1f79 4f3e 3e64 1dbe 86e5 243e
00000050: 5eba 01be 42b4 88be a64c 94be 72de 94be
00000060: c205 5e3b 2fe9 f2bc 52a9 1abd b35c bebc
00000070: 2b36 473c 94d2 32bd 1597 0dbe 12f7 ae3c
00000080: 9226 a8be a6fb 2cbf a0e6 f2bd 8531 53bf
00000090: 11f4 44be 5299 153f ccdc 4e3d fbe6 413e
000000a0: 3445 113e 7905 5abf 93b0 b73e c304 83bf
000000b0: 2574 c13d 0082 3c3e 8363 3bbf 89e7 63be
000000c0: b7e3 46bd 8e25 87be 7c99 4f3e 071e 073e
000000d0: 1cb9 32bf 9858 8cbe ece5 123e 218d 04bf
000000e0: e030 e7bd 325b f2bd 0e69 1c3d cf13 85bd
000000f0: e0a5 7dbe 998e a53d 6c35 a53e e169 93bd
00000100: 1230 2d3d 3b8e b0be 4c0d 6e3c 5ca3 b33d
00000110: acc6 6b3e 01a9 4fbe c1ad 8bbc 907b a43d
00000120: 4d2a f7bd b266 9fbd 7467 95bd 03a8 ccbd
00000130: d4c9 18be 08e3 ddbd dc72 7abe a74c c9bd
00000140: 0aa8 a6bc dccc 153d 8391 10be 1152 02c0
00000150: f83d 723d 14e2 67bd 31c5 e43c 5584 fd3d
00000160: 1c37 67bf cc9b 553e a3ae 063f 1cf9 1cbd
00000170: 3e9d 0c3e 916e 223e 3508 77bd e21a 8d3d
00000180: 5ce0 e2bd eece d2bd 949b 993e df73 3bbe
00000190: 5b42 6b3e d1b9 43bf bf12 fe3e d390 73bd
000001a0: 6059 a93d a25f 483d 19c4 943d fc95 dabc
000001b0: be69 86be 435d 4a3e 3d34 cabc fa0e 833d
000001c0: 11b0 c13d b77f 07bd ff2c 03bb 441b c9bc
000001d0: 7a77 963d 63bc ce3c 3888 1cbb 292d 09be
000001e0: ba38 e5be e7b8 2f3e f48a 20be d0ea 41be
000001f0: 9de4 63bc d427 073d 6863 ff3d 8bcb 1bbe
00000200: 55df e2be a4e5 9d3e fb0f b23d 05a0 363e
00000210: 5da1 163e 9ab0 8ebd 6587 56be c42d 263e
00000220: dff4 49bf 8445 34be 1762 593d e828 b1be
00000230: 3aea 35be 0bbb bbbd 8d15 163e 7974 24bd
00000240: f2a6 5fb9 71e1 a1bd 3d83 adbc 6e97 47bd
00000250: 6fa0 93bd 7005 45be cd94 bdbd dd0b 33bd
00000260: 5717 d73e 4b2b c03d da67 223e 2f45 a03e
00000270: 3e73 a53d 1ed0 1fbe aa84 f83c 65d8 a4ba
00000280: 8f46 99bc e3c6 b8bc 223d aa3d 37a5 d93c
00000290: 5382 cd3e d669 993e 8552 7a3e 3db7 d63d
000002a0: 9d66 023c e3df ae3c 96c8 1c3e df7a 69bd
000002b0: 0a3a 073e 734e 91bc 8cff f5bd 7ffd abbc
000002c0: 67b2 9fbe efa2 6a3d b7a2 153e be4f b5bd
000002d0: 7f1b 4abc cbd1 443c dda8 f639 c48f 38bd
000002e0: 67b3 403e 6a6b a43d 04ef a83e 6e0a ddbe
000002f0: ffcd b9bd 3568 01be 37f7 ac3d d008 8e3d
00000300: 6dc4 47bf da81 d83e 8469 213e 68d3 c9be
00000310: d6da 773d c951 833b 1e71 0abd e48b 4fbc
00000320: ab6a 5a3b 6441 e93c 85ca 8cbd 9073 e93e
00000330: d591 44bd 0c5a 84bd 219a 70bd ce67 7cbd
00000340: 8724 8a3e 2d86 173e 0dd9 0f3e aec9 e0be
00000350: de06 23bd 8172 353d 1651 c7be 55fb 2dbd
00000360: 0cc8 ffbc 2760 7a3c 17ef e6bb e8a4 96bc
00000370: ec54 cdbd 37d5 283d 96fe afbd f74a f1bd
00000380: cfc6 30bf c6d7 0cbe c015 5dbe 3028 abbd
00000390: 638e 47bf 6bd3 03bf fad0 ef3d fa86 9abd
000003a0: 5833 eabd 3b6e 8b3e 9b89 dabe 9c25 8dbe
000003b0: e059 983d 2861 89bd fe80 3fbe 3683 c5bd
000003c0: c9bf 033f 1e8c 75be e6d6 b8bd 1e67 93be
000003d0: 7e89 91bd 78af eebc 0620 9dbb 3c70 023d
000003e0: e039 1a3e 8469 dcbd 389f 5fbe a43e 6fbd
000003f0: a1e2 503b f19d 1abd e5fe bf3c 6c44 a53d

model.decoder.0.bias f4 [148]
-0.2575883 -0.062012766 -0.012678854 -0.6982662 -1.0099953 0.049978595 -0.050140668 0.3793597
-0.20640792 -0.072383404 -0.13410543 -0.12940095 -1.6616062 -0.5478746 -0.09416291 0.020969722
-0.015369959 -0.13393188 -0.07701207 -0.045332987 0.14035413 -0.42283913 -1.0842309 -0.48612097
-0.4468377 0.02492328 -0.5344858 -0.0312649 -1.6828793 -1.6493493 -0.07805659 -0.08009347
-0.7430438 0.07907472 0.0339762 -0.93747556 -0.025314592 -0.05644781 -0.4606295 0.48030135
-0.011915098 -0.36290804 0.3468086 -0.028502598 -0.27871525 -0.042728715 -0.6989502 0.30904326
-0.00043053305 -0.005045541 0.02935508 -0.08865942 -0.026281923 -0.68947566 -0.025494136 -0.60914373
-0.07011356 0.14729984 -0.4202851 -0.053603366 -0.2542815 0.04142111 0.03544199 -0.021233607
-0.0341322 -0.060479183 0.0871077 -0.043277293 -0.11082112 -0.42580906 -0.059814785 0.12066118
-0.7616997 -0.2855494 -0.044603944 -0.05171513 -0.411296 -0.77691925 -0.074433364 -0.0055426015
-0.05125003 -0.4182495 -0.31903347 -0.37537816 -0.58755296 -0.12067212 -0.02071447 0.115322255
-0.05353714 -0.382684 0.12333815 0.020818457 -0.043446355 0.05051361 0.0362635 0.043245375
-0.061103478 -0.46042395 -0.60999876 -0.055176232 -0.4816957 0.00030038293 -0.07740543 -0.7951012
-0.06504616 -0.38851738 -0.0672787 0.16960925 -0.032529216 -0.03509653 -0.37663403 -0.26052898
0.15885624 0.2569816 0.16791093 0.026118135 -0.012386384 -0.6875617 0.5758748 -0.35312408
-0.030529741 -0.6304187 -0.23924057 -0.31219324 -1.117458 -0.009797525 -0.071260475 -0.08035834
-0.7291868 0.14051984 -0.025406484 -0.016661126 -0.6574725 -0.1918121 -0.055982355 -1.2963547
-0.5671232 -0.030384406 -0.12120823 -0.34742042 0.1268989 -0.09901154 -0.30439863 -1.0409248
-0.75562936 0.08893853 -0.8886895 -0.058405288
00000000: 9de2 83be 1901 7ebd f8ba 4fbc 93c1 32bf
00000010: 8747 81bf 5bb6 4c3d 4d60 4dbd 6f3b c23e
00000020: 995c 53be c03d 94bd ef52 09be af81 04be
00000030: 83af d4bf 8341 0cbf 7cd8 c0bd b2c8 ab3c
00000040: 48d2 7bbc 7025 09be 81b8 9dbd 15af 39bd
00000050: feb8 0f3e 5f7e d8be 14c8 8abf d9e4 f8be
00000060: e9c7 e4be e82b cc3c 10d4 08bf a00f 00bd
00000070: 9768 d7bf e11d d3bf 22dc 9fbd 0c08 a4bd
00000080: 1e38 3ebf edf1 a13d a12a 0b3d 66fe 6fbf
00000090: 8c60 cfbc d235 67bd a1d7 ebbe 0fea f53e
000000a0: 8b37 43bc 15cf b9be e690 b13e 487e e9bc
000000b0: c4b3 8ebe 4e04 2fbd 66ee 32bf eb3a 9e3e
000000c0: 2bb9 e1b9 1155 a5bb 117a f03c 1293 b5bd
000000d0: 304d d7bc 7a81 30bf 14d9 d0bc d8f0 1bbf
000000e0: b397 8fbd c5d5 163e 9c2f d7be 348f 5bbd
000000f0: 2f31 82be 2fa9 293d 9f2b 113d 1af2 adbc
00000100: 35ce 0bbd 05b9 77bd 8665 b23d 8843 31bd
00000110: 2ff6 e2bd a503 dabe 5900 75bd 351d f73d
00000120: c0fe 42bf 8833 92be a0b2 36bd 3fd3 53bd
00000130: 6495 d2be 2ee4 46bf 8570 98bd b69e b5bb
00000140: 8deb 51bd cc24 d6be 5b58 a3be 9131 c0be
00000150: df69 16bf f222 f7bd 64b1 a9bc 132e ec3d
00000160: c349 5bbd 28ef c3be b698 fc3d 788b aa3c
00000170: cef4 31bd 5ce7 4e3d 0989 143d 1022 313d
00000180: a447 7abd b0bc ebbe e128 1cbf 7900 62bd
00000190: d2a0 f6be b77c 9d39 bd86 9ebd c18b 4bbf
000001a0: ec36 85bd c0eb c6be 6ac9 89bd 0cae 2d3e
000001b0: 5b3d 05bd 61c1 0fbd 2dd6 c0be 0e64 85be
000001c0: 36ab 223e 1893 833e d8f0 2b3e b3f5 d53c
000001d0: 43f0 4abc 0b04 30bf 886c 133f aecc b4be
000001e0: 8219 fabc 1f63 21bf 7bfb 74be cbd7 9fbe
000001f0: dd08 8fbf cc85 20bc 03f1 91bd ea92 a4bd
00000200: fcab 3abf 6fe4 0f3e 4221 d0bc ea7c 88bc
00000210: 1e50 28bf 646a 44be c14d 65bd f3ee a5bf
00000220: fc2e 11bf b8e8 f8bc 053c f8bd 17e1 b1be
00000230: c9f1 013e 90c6 cabd 23da 9bbe 063d 85bf
00000240: ed70 41bf 6725 b63d 2881 63bf 623a 6fbd

model.decoder.2.weight f4 [148, 43, 3, 3]
-0.48902163 0.11476369 -0.280893 0.32101527 0.40981868 -0.090442844 0.40619966 0.15971796
0.15663143 0.0849509 -0.046710588 -0.14824979 -0.2155545 -0.18492895 -0.23010243 -0.4003011
-0.15500085 -0.90803087 -0.031901587 0.031988245 -0.014223496 0.050449286 -0.029828984 -0.03491794
-0.030333968 0.039256196 -0.008721341 0.84159666 -0.2607176 0.18801863 0.412955 0.072112285
0.31013706 0.09060103 -0.29090345 -0.6975433 -0.95359135 0.56659144 -0.5275942 -0.93426657
-0.9921914 0.109609336 -0.16030392 0.4725476 -0.00822936 0.23569657 0.20375134 0.1091153
0.7630744 0.48205057 -0.9910355 0.05852039 -0.18524373 0.52444744 0.059271418 -0.37092406
-0.6266898 -0.37235856 -0.54344356 0.6517583 0.0061301207 0.24859828 -0.455116 0.45809966
-0.73652136 0.55104136 0.074604586 0.11429329 1.2026272 0.21893232 -0.7629308 0.26828468
-0.20332839 0.10681251 -0.34523255 -0.2224704 -0.12013054 0.083340555 0.048219282 0.0058588483
-0.77553135 0.334287 0.11387016 -0.15674762 0.14192036 -0.030787092 0.33555385 -0.020042418
1.0034837 0.4007446 -0.064431205 -0.5818992 -0.60241115 0.38279197 -0.3656701 0.4790331
0.3833271 -0.055902556 0.12906583 0.006938556 -0.2575457 -0.6297325 0.31508264 0.24802892
-0.24801134 0.37647533 -0.6466342 -0.42142564 0.15828127 0.23548108 -0.24441208 -0.46337876
-0.32755163 -0.9801549 0.35880354 -0.3801014 -1.3805641 -0.017767487 -0.0343114 -0.007384453
-0.024768954 0.016496683 0.022937598 0.041050144 0.043614253 0.04507012 0.39432025 -0.1552262
-0.51240885 0.0935649 0.4920681 0.727969 0.4613413 0.6690574 -0.96228725 0.6295698
0.004711157 0.37248075 -0.31823486 -0.13962834 0.320113 0.17022301 -0.10133356 0.3070228
0.15881789 -0.28104115 0.27736062 -0.2743923 0.017047286 0.45916325 -0.4743894 0.15332048
0.06086058 -0.8830547 -0.19210035 0.3180611 -0.20759112 -0.06866202 -0.3998437 0.14056449
0.4139824 -0.16981366 -0.39318204 -0.25327575 0.6219718 -0.0149910655 0.09957272 0.78416747
0.03973733 0.04296468 -0.05142357 -0.17707519 0.46714973 -0.2864994 -0.1508589 0.41157687
0.19414753 -0.89526814 0.0070288726 -0.93963796 -0.08971028 0.47249502 0.23496625 0.10466563
-0.014802577 -0.32476223 0.37231517 -0.62364346 -0.9811333 0.0058385585 -0.02274898 -0.0060862964
0.012880833 0.025047453 -0.044456623 -0.040490717 -0.03009279 0.037612393 -0.006737682 -0.20560786
-0.21001968 0.14306161 -0.27511176 -0.031174494 0.13499908 -0.5165462 -0.36345857 -0.24582712
-0.44713852 -0.21449329 -0.13723104 0.1782047 0.26050335 -0.2724902 0.095495276 -0.33378083
-0.145547 0.0023591826 -0.028438851 0.043812834 0.021953695 -0.018241866 -0.0027821937 0.011295971
-0.020409651 -0.0055220826 0.002141596 -0.02398857 -0.03073458 0.0039198995 0.032075614 -0.042249005
-0.01646107 -0.0072530345 -0.27338058 0.40024504 0.085204706 -0.2855838 0.5540929 -1.1445404
0.07403759 0.3151726 0.005831396 0.19633205 -0.19749032 -0.4717196 0.05309246 0.06595726
-0.72778136 -0.34108344 -0.4608518 -0.89031005 -0.33518943 -0.6475889 0.2153396 0.74423575
00000000: 0b61 fabe 3a09 eb3d 35d1 8fbe 1d5c a43e
00000010: c1d3 d13e 193a b9bd 67f9 cf3e 1b8d 233e
00000020: fd63 203e bdfa ad3d 9a53 3fbd cbce 17be
00000030: 52ba 5cbe 045e 3dbe f99f 6bbe 44f4 ccbe
00000040: 8bb8 1ebe b674 68bf 3dab 02bd 1b06 033d
00000050: ab09 69bc e9a3 4e3d ea5b f4bc 1d06 0fbd
00000060: f17e f8bc 1bcb 203d f5e3 0ebc e172 573f
00000070: c77c 85be f587 403e d66e d33e 9baf 933d
00000080: 49ca 9e3e 088d b93d 4cf1 94be 3392 32bf
00000090: 901e 74bf 230c 113f 6a10 07bf 182c 6fbf
000000a0: 4100 7ebf dc7a e03d b626 24be c2f1 f13e
000000b0: 70d4 06bc 715a 713e 31a4 503e d877 df3d
000000c0: d858 433f 55cf f63e 81b4 7dbf 14b3 6f3d
000000d0: 88b0 3dbe 3042 063f 96c6 723d c2e9 bdbe
000000e0: be6e 20bf c8a5 bebe 1e1f 0bbf a2d9 263f
000000f0: 2edf c83b 8c90 7e3e f704 e9be 0a8c ea3e
00000100: aa8c 3cbf 0c11 0d3f 4aca 983d 9a12 ea3d
00000110: b0ef 993f cb2f 603e 6f4f 43bf 9c5c 893e
00000120: 5135 50be 84c0 da3d 52c2 b0be 48cf 63be
00000130: 0007 f6bd 74ae aa3d 9581 453d 95fb bf3b
00000140: 3989 46bf aa27 ab3e c234 e93d 7382 20be
00000150: 9253 113e 3635 fcbc b7cd ab3e ff2f a4bc
00000160: 2772 803f 652e cd3e 82f4 83bd 59f7 14bf
00000170: 9e37 1abf 4ffd c33e 1d39 bbbe d443 f53e
00000180: 7343 c43e 14fa 64bd d529 043e d45c e33b
00000190: 08dd 83be 2636 21bf 8352 a13e 4bfb 7d3e
000001a0: aff6 7dbe 60c1 c03e d289 25bf 1ac5 d7be
000001b0: 7c14 223e f421 713e 2947 7abe fb3f edbe
000001c0: d9b4 a7be 6eeb 7abf 19b5 b73e a79c c2be
000001d0: 53b6 b0bf 1f8d 91bc 1c8a 0cbd 48f9 f1bb
000001e0: 43e8 cabc 0d24 873c a1e7 bb3c 3224 283d
000001f0: dca4 323d 729b 383d 58e4 c93e 9ef3 1ebe
00000200: 3a2d 03bf f49e bf3d 5af0 fb3e 2d5c 3a3f
00000210: ed34 ec3e 5947 2b3f 7558 76bf 7d2b 213f
00000220: 0d60 9a3b ccb5 be3e aeef a2be bbfa 0ebe
00000230: dae5 a33e f14e 2e3e f887 cfbd 1832 9d3e
00000240: 28a1 223e a0e4 8fbe 3602 8e3e 267d 8cbe
00000250: c0a6 8b3c 7217 eb3e 2be3 f2be 0b00 1d3e
00000260: f248 793d df0f 62bf f4b5 44be e8d8 a23e
00000270: c492 54be ac9e 8cbd 50b8 ccbe 23f0 0f3e
00000280: 80f5 d33e a2e3 2dbe 284f c9be 5cad 81be
00000290: 8b39 1f3f 169d 75bc c8ec cb3d 33bf 483f
000002a0: 9cc3 223d bbfb 2f3d 85a1 52bd 3353 35be
000002b0: 402e ef3e 0db0 92be c17a 1abe 34ba d23e
000002c0: 9cce 463e 4b30 65bf 7552 e63b 1d8c 70bf
000002d0: 06ba b7bd deea f13e fe9a 703e ef5a d63d
000002e0: 8286 72bc 3c47 a6be 18a0 be3e 19a7 1fbf
000002f0: 8d2b 7bbf 6151 bf3b 125c babc 8e6f c7bb
00000300: 210a 533c 5130 cd3c 2618 36bd 98d9 25bd
00000310: 2885 f6bc 740f 1a3d c6c7 dcbb de8a 52be
00000320: 660f 57be be7e 123e 73db 8cbe a761 ffbc
00000330: 333d 0a3e 5f3c 04bf 3e17 babe 1bba 7bbe
00000340: 57ef e4be 21a4 5bbe 4b86 0cbe 4b7b 363e
00000350: b260 853e d683 8bbe 0793 c33d 52e5 aabe
00000360: 460a 15be 849c 1a3b 98f8 e8bc 1675 333d
00000370: 3cd8 b33c f76f 95bc 7755 36bb bd12 393c
00000380: 2432 a7bc 96f2 b4bb 055a 0c3b ad83 c4bc
00000390: 16c7 fbbc 8072 803b b861 033d 4b0d 2dbd
000003a0: 5ed9 86bc ddaa edbb 8af8 8bbe ebec cc3e
000003b0: ce7f ae3d 0a38 92be 08d9 0d3f 4d80 92bf
000003c0: 05a1 973d 4e5e a13e 4c15 bf3b 450b 493e
000003d0: e73a 4abe 3b85 f1be 7b77 593d 9a14 873d
000003e0: e14f 3abf 7da2 aebe c4f4 ebbe 5ceb 63bf
000003f0: f39d abbe 63c8 25bf fc81 5c3e 3c86 3e3f

model.decoder.2.bias f4 [43]
-0.47216 -0.25751445 -0.09297742 -0.34515142 -0.23291792 -0.2099791 -0.31279376 -0.34805328
-0.08668116 -0.39843202 -0.14912885 -0.34991285 -0.08642586 -0.088265724 0.08845731 -0.55525696
-0.19856937 -0.08320203 -0.51000136 -0.61370134 -0.22048812 -0.13828076 0.16204856 -0.041156393
-0.06571676 -0.20356074 -0.030189177 0.06750199 0.20030251 -0.040026106 -0.33985233 -0.07748777
-0.58493614 -0.4838184 -0.13262792 -0.03328909 -0.20620914 -0.16157395 -0.8760121 -0.0012970831
-0.8655326 -0.7796001 -0.14965458
00000000: f5be f1be efd8 83be f26a bebd b0b7 b0be
00000010: 0982 6ebe c304 57be 8126 a0be 0a34 b2be
00000020: e485 b1bd 48ff cbbe 3cb5 18be c727 b3be
00000030: 0b00 b1bd a9c4 b4bd 1b29 b53d 5225 0ebf
00000040: c555 4bbe d365 aabd 738f 02bf 881b 1dbf
00000050: a3c7 61be 7999 0dbe 0ff0 253e 9b93 28bd
00000060: 8296 86bd 3a72 50be 4b4f f7bc 7c3e 8a3d
00000070: 1a1c 4d3e 6af2 23bd 2001 aebe e8b1 9ebd
00000080: 60be 15bf 0cb7 f7be 9dcf 07be 245a 08bd
00000090: 7d28 53be a473 25be 5442 60bf e302 aaba
000000a0: 8b93 5dbf df93 47bf 0d3f 19be

model.decoder.4.weight f4 [43, 5, 3, 3]
0.30683333 -0.47704992 -0.007796438 -0.44369286 0.05248611 -0.10854098 0.14984302 -0.46832824
-0.14176059 -0.052613746 -0.12573297 0.1590917 -0.039242838 -0.05472972 0.2506398 0.1818027
0.026260251 -0.098422684 -0.023403054 0.13546401 -0.010249143 -0.19282229 -0.11674803 0.041392893
-0.72399473 -0.34723228 -0.9581895 0.16406643 0.06592346 0.009649899 -0.12289847 0.0026473626
0.10302782 -0.5228494 -0.033273473 0.0103240535 -0.13529058 0.013806368 0.09377796 -0.30552527
0.01876935 0.045056455 0.26421642 -0.29204372 0.3388549 -0.07797791 -0.08934942 0.1756396
-0.3933589 -0.045950305 -0.116848566 -0.6885175 -0.24660796 -0.060501847 0.03657684 0.0029887096
0.30088177 0.26270303 0.20383064 0.3435109 -0.07998809 -0.50954324 -0.76832104 -0.009620186
0.34037572 -0.35693482 -1.3370078 -1.3589258 -0.3671916 -0.5221529 -0.16860572 -0.52277213
-0.01803683 -0.09335691 0.15325665 0.05616068 0.14034274 0.12478136 -0.14220157 -0.034290638
-0.04934818 -0.14770278 0.060002275 0.124620855 -0.13592204 0.2959084 -0.0011835555 -0.089480326
-0.11650745 -0.008075559 0.022969438 0.07359661 -0.14595832 0.05603077 0.07111953 -0.15824336
-0.023954133 -0.0014713238 0.03379489 -0.04414575 0.12965412 -0.024421377 0.08402442 0.09898974
-0.049515657 0.0084590735 0.051643897 0.14228319 0.10767296 -0.15871929 0.09649686 -0.03389588
-0.10023126 -0.03715719 -0.089584254 0.11815426 0.044950157 0.09771483 0.04689586 -0.06381942
-0.038641393 -0.1390943 0.026366385 0.12784652 -0.019077083 0.10156628 0.039320435 -0.04155786
0.107541695 -0.07202073 -0.03325149 0.017216858 -0.13164613 0.04850742 0.114147976 0.5855841
-0.13221131 0.23486696 0.07859285 0.18508771 0.21455936 -0.028778162 -0.20082182 0.24027258
-0.017708065 -0.03994058 0.008953219 0.11676308 0.028414221 0.21249536 -0.17302416 -0.18742631
-0.24309127 -0.38871223 -0.31623176 0.23887785 0.77610606 1.0160023 -0.29591316 0.31809512
-0.2532136 -0.09521765 0.009092372 0.34815595 -0.23945618 -0.2651655 -0.08689065 0.020203998
-0.25038984 0.07670159 -0.18604013 -0.12523784 0.30950928 -0.3778085 0.06928561 -0.17957622
-0.12077932 0.17735688 -0.05506745 -0.41005328 -0.07191091 -0.13581197 0.026310923 -0.29448816
0.04753905 -0.06483812 -0.068400666 -0.18209617 -0.22693492 0.08891936 -0.19429825 -0.11419263
-0.108589895 0.23531814 0.10892082 0.02218613 0.21551153 -0.04315697 -0.37216794 -0.44850382
-0.48105535 -0.28584766 -0.7307193 -0.6465781 0.3353513 -1.2114533 -0.7244579 -0.1469657
0.08424569 0.30716 -0.09906494 -0.044540353 -0.19412918 -0.5135522 0.04211203 0.053595126
0.3479064 0.013059409 0.127248 0.01689517 -0.113279924 -0.11536567 -0.33545747 0.07974512
0.38075945 -0.03923508 0.072954774 -0.021342875 0.23966065 0.13138461 0.14710905 0.14004654
-0.35022432 -0.2702605 -0.015732499 -0.0644819 0.08071322 0.058030013 -0.12957084 -0.26744476
-0.15547952 -0.060024474 0.21374466 -0.50017995 0.0003580176 -0.37581772 -0.041445896 0.0041620564
0.12053593 0.2997922 -0.6021326 -0.15812017 -0.26988193 -0.53908885 -0.094667256 -0.100411326
00000000: 4219 9d3e e33f f4be 4379 ffbb b62b e3be
00000010: adfb 563d bc4a debd 7370 193e b8c8 efbe
00000020: b029 11be 8381 57bd 25c0 00be efe8 223e
00000030: 19bd 20bd 452c 60bd dc53 803e 7d2a 3a3e
00000040: bd1f d73c d591 c9bd c3b7 bfbc 14b7 0a3e
00000050: 05ec 27bc 3573 45be 9719 efbd 988b 293d
00000060: b857 39bf 6ec8 b1be e84b 75bf 0801 283e
00000070: e102 873d 9c1a 1e3c 31b2 fbbd 607f 2d3b
00000080: 4000 d33d 75d9 05bf c449 08bd 3826 293c
00000090: 9d89 0abe 1b34 623c a90e c03d cf6d 9cbe
000000a0: 2ec2 993c 1e8d 383d 6047 873e c186 95be
000000b0: 647e ad3e e2b2 9fbd d4fc b6bd deda 333e
000000c0: 5666 c9be 6336 3cbd 4d4e efbd af42 30bf
000000d0: cc86 7cbe c9d0 77bd 99d1 153d 3ade 433b
000000e0: 2d0d 9a3e 0381 863e fbb8 503e a9e0 af3e
000000f0: ccd0 a3bd 6d71 02bf b0b0 44bf fc9d 1dbc
00000100: ba45 ae3e 29c0 b6be 1223 abbf 48f1 adbf
00000110: 8a00 bcbe d0ab 05bf faa6 2cbe 65d4 05bf
00000120: f9c1 93bc e831 bfbd 50ef 1c3e be08 663d
00000130: 02b6 0f3e 5f8d ff3d 4a9d 11be 5774 0cbd
00000140: 5121 4abd 663f 17be f2c4 753d 3839 ff3d
00000150: 262f 0bbe 4e81 973e 8821 9bba 7641 b7bd
00000160: 759b eebd 594f 04bc 672a bc3c d2b9 963d
00000170: 1976 15be 8580 653d 1ea7 913d 8c0a 22be
00000180: 753b c4bc 6fd9 c0ba 836c 0a3d 2dd2 34bd
00000190: 0dc4 043e 570f c8bc ff14 ac3d 22bb ca3d
000001a0: eed0 4abd ed97 0a3c 8d88 533d afb2 113e
000001b0: a483 dc3d 4f87 22be 25a0 c53d 68d6 0abd
000001c0: 0c46 cdbd 2332 18bd f377 b7bd dcfa f13d
000001d0: a81d 383d b61e c83d e015 403d c2b3 82bd
000001e0: 7046 1ebd bc6e 0ebe 51fe d73c 33ea 023e
000001f0: 8b47 9cbc fb01 d03d 770e 213d 9338 2abd
00000200: d23e dc3d 9b7f 93bd b732 08bd 5e0a 8d3c
00000210: 3ece 06be b7af 463d 6ac6 e93d d7e8 153f
00000220: 6762 07be f780 703e 4af5 a03d a287 3d3e
00000230: 73b5 5b3e 2ec0 ebbc 3ca4 4dbe 040a 763e
00000240: 8110 91bc bc98 23bd 86b0 123c 7b21 ef3d
00000250: f1c4 e83c 6298 593e 3f2d 31be afec 3fbe
00000260: ebec 78be 4a05 c7be 21e9 a1be 659c 743e
00000270: e3ae 463f 5d0c 823f ee81 97be 5ddd a23e
00000280: 37a5 81be 7901 c3bd 2cf8 143c 7f41 b23e
00000290: 0034 75be c6c3 87be baf3 b1bd db82 a53c
000002a0: 1933 80be b915 9d3d 4e81 3ebe 593e 00be
000002b0: 0078 9e3e 1e70 c1be 9de5 8d3d d4e2 37be
000002c0: 265b f7bd 0b9d 353e 688e 61bd 81f2 d1be
000002d0: 0746 93bd 4b12 0bbe 018a d73c 27c7 96be
000002e0: 4fb8 423d d9c9 84bd a615 8cbd 6b77 3abe
000002f0: a161 68be 5a1b b63d 1ff6 46be d3dd e9bd
00000300: 6164 debd 3df7 703e e111 df3d b0bf b53c
00000310: 0eaf 5c3e 5dc5 30bd cc8c bebe 4ba2 e5be
00000320: e34c f6be a05a 92be 6c10 3bbf 2486 25bf
00000330: 2ab3 ab3e e710 9bbf 1376 39bf 2d7e 16be
00000340: 0189 ac3d 1344 9d3e 8fe2 cabd f26f 36bd
00000350: cdc9 46be 2878 03bf aa7d 2c3d 9086 5b3d
00000360: ca20 b23e 22f7 553c 4d4d 023e bd67 8a3c
00000370: 4eff e7bd d644 ecbd 15c1 abbe 6951 a33d
00000380: e7f2 c23e f7b4 20bd 5069 953d 41d7 aebc
00000390: 9a69 753e b089 063e c1a3 163e 5c68 0f3e
000003a0: 9a50 b3be 965f 8abe 71e1 80bc 160f 84bd
000003b0: f94c a53d e1b0 6d3d 38ae 04be 85ee 88be
000003c0: 0636 1fbe 39dc 75bd e1df 5a3e cb0b 00bf
000003d0: 4fb4 bb39 2e6b c0be 2cc3 29bd dc61 883b
000003e0: 8bdb f63d 5d7e 993e 5d25 1abf 41ea 21be
000003f0: f72d 8abe ba01 0abf e8e0 c1bd 74a4 cdbd

model.decoder.4.bias f4 [5]
0.14860462 0.22540343 -0.072493516 0.30704322 0.35251892
00000000: cf2b 183e 28d0 663e 7b77 94bd c534 9d3e
00000010: 5c7d b43e

model.decoder.6.weight f4 [5, 8, 3, 3]
-0.2404768 -0.14125383 -0.14578882 -0.19848521 -0.10063648 -0.0644336 -0.15215449 -0.07271599
-0.11149188 0.22934283 0.09315493 -0.088291645 0.096487954 0.015461241 -0.1744205 -0.04575447
-0.297758 -0.23382163 -0.296773 -0.24205208 0.07175562 -0.122569144 -0.20912904 0.12150953
-0.21409193 -0.17325838 0.11533712 -0.09769273 0.006730188 -0.24427009 -0.097826034 0.0924591
0.07848445 -0.4002942 -0.17233688 0.11789232 -0.5329714 -0.17727108 0.086824834 0.03955613
-0.16851342 -0.00484492 0.22189692 0.115659066 -0.22361872 -0.16844073 0.11754653 0.18900023
-0.23440641 -0.0684116 0.07460646 -0.14193 -0.09187635 0.0038173913 0.030427339 0.06572286
0.019855043 0.047659244 0.08686448 0.050260782 0.03409839 0.060657848 0.027037445 0.024375191
-0.117864005 0.08706865 -0.28166702 -0.3629215 0.0053364784 -0.34183267 -0.14142102 -0.01099415
0.14342873 0.20111015 0.21415086 0.15461111 0.14162174 0.16821174 0.15597524 0.16693951
0.15906659 0.10493048 -0.0034762986 -0.0006133464 0.043416377 0.032438733 -0.045846846 0.031190835
0.018737433 0.0736702 -0.12242319 -0.025983492 -0.007650039 -0.11708034 -0.013124901 -0.06289862
-0.10508302 -0.102140985 -0.07442786 0.12367319 -0.050423685 -0.08311157 0.045450475 0.121795245
-0.084521435 -0.13224854 -0.16528326 0.10991136 0.003941949 -0.032952838 0.0069219824 -0.025596354
0.021160355 0.061086874 0.020707702 0.02228345 0.013055699 -0.13027287 -0.14909251 -0.138861
0.010082423 0.0061465567 -0.037292257 -0.13046598 -0.032089405 -0.05832874 -0.049921196 -0.057868667
-0.06927499 -0.014505242 -0.058372606 -0.038133867 -0.053753566 -0.048534617 -0.068863235 0.13719699
0.027557423 0.18129988 -0.009629329 -0.022689102 -0.008020491 0.04839141 0.0925332 0.022885025
0.37426165 0.32702643 0.05872085 0.20457101 0.08513205 -0.038807068 0.17048635 0.16031554
0.021761743 -0.20122875 -0.115479425 -0.18063124 0.012179658 -0.0013535314 -0.042037494 -0.31023097
-0.13312823 0.03444171 -0.02196225 -0.7377717 -0.37837133 -0.011764806 0.0094877975 0.003495763
-0.11671897 -0.103902586 0.07696443 0.2559388 -1.0011152 -0.19723742 -0.11181852 -0.41545835
-0.10305913 -0.3058088 -0.017924592 0.0328926 -0.07365188 0.07294504 0.25798333 0.015232146
-0.017748082 0.14792003 -0.17127447 -0.13150862 -0.20698383 0.027981099 0.20020485 -0.8910936
-0.41122997 -0.14344159 -0.49048528 0.025040593 -0.39618972 0.26231137 -0.37984526 0.055550575
-0.18001871 -0.25190735 -0.16415739 0.12528045 -0.24574493 -0.047708966 -0.085163735 0.14426725
0.033008035 -0.94960904 -0.04776079 -0.21786563 -0.16123462 0.2856193 -0.047543887 0.078411534
-0.155757 -0.15322593 -0.10115046 -0.24790396 -0.24540602 -0.1770461 -0.16612445 -0.044404235
-0.19762853 -0.12612967 -0.061102733 -0.048583735 0.09960589 0.075768456 -0.026140638 0.11631358
0.07264608 0.029722776 0.061871212 0.08195251 0.030169778 0.10342155 0.17653134 0.01277531
0.14724582 0.032398764 0.029486462 0.079043545 -0.1433439 0.12244711 0.076732814 0.2197712
0.014955375 -0.06174661 0.1460664 -0.06359055 0.16204736 -0.097764045 0.22293128 -0.14901258
00000000: 8d3f 76be d8a4 10be aa49 15be b53f 4bbe
00000010: 801a cebd c3f5 83bd 63ce 1bbe 1fec 94bd
00000020: db55 e4bd d9d8 6a3e 03c8 be3d 40d2 b4bd
00000030: 7a9b c53d 2551 7d3c 4a9b 32be 0a69 3bbd
00000040: bd73 98be f06e 6fbe a1f2 97be 80dc 77be
00000050: 9cf4 923d 8805 fbbd ec25 56be fdd9 f83d
00000060: ea3a 5bbe a56a 31be de35 ec3d 2013 c8bd
00000070: e988 dc3b f021 7abe 0459 c8bd 325b bd3d
00000080: 75bc a03d 5df3 ccbe 1479 30be 8771 f13d
00000090: d070 08bf 8d86 35be 38d1 b13d 9c05 223d
000000a0: c88e 2cbe 22c2 9ebb f238 633e a9de ec3d
000000b0: 4efc 64be ba7b 2cbe 3cbc f03d 4789 413e
000000c0: 3c08 70be 621b 8cbd 46cb 983d 1956 11be
000000d0: ab29 bcbd 332d 7a3b c142 f93c b599 863d
000000e0: 0ba7 a23c 5736 433d 01e6 b13d 40de 4d3d
000000f0: c1aa 0b3d 5d74 783d a27d dd3c 7bae c73c
00000100: af62 f1bd 0c51 b23d a936 90be d9d0 b9be
00000110: a0dd ae3b b104 afbe acd0 10be cf20 34bc
00000120: fbde 123e d2ef 4d3e 5d4a 5b3e 6052 1e3e
00000130: 4a05 113e b33f 2c3e f9b7 1f3e 31f2 2a3e
00000140: 5ae2 223e cbe5 d63d 9dd2 63bb fbc8 20ba
00000150: 5fd5 313d 7ade 043d e7c9 3bbd ec83 ff3c
00000160: 3f7f 993c 67e0 963d 02b9 fabd 55db d4bc
00000170: 2ead fabb d1c7 efbd d309 57bc fed0 80bd
00000180: c435 d7bd 4b2f d1bd a26d 98bd 5f48 fd3d
00000190: 1189 4ebd 6636 aabd 472a 3a3d c96f f93d
000001a0: 9319 adbd 296c 07be 0440 29be 3519 e13d
000001b0: 772b 813b 8ef9 06bd ccd1 e23b 72af d1bc
000001c0: 7b58 ad3c 3b36 7a3d 33a3 a93c c88b b63c
000001d0: 92e7 553c 4066 05be b5ab 18be 9431 0ebe
000001e0: bf30 253c 0e69 c93b c4bf 18bd e098 05be
000001f0: 2e70 03bd 1eea 6ebd 2b7a 4cbd b207 6dbd
00000200: 0ce0 8dbd 65a7 6dbc 1d18 6fbd 4232 1cbd
00000210: b32c 5cbd 3ccc 46bd 2b08 8dbd 5e7d 0c3e
00000220: 1bc0 e13c ada6 393e 55c4 1dbc 7fde b9bc
00000230: 6168 03bc 1236 463d 0c82 bd3d 6079 bb3c
00000240: 399f bf3e 0270 a73e 4685 703d 107b 513e
00000250: b659 ae3d 29f4 1ebd f993 2e3e c229 243e
00000260: af45 b23c e90e 4ebe 7a80 ecbd 65f7 38be
00000270: 308d 473c fa68 b1ba 822f 2cbd 98d6 9ebe
00000280: c452 08be c012 0d3d 2dea b3bc 9bde 3cbf
00000290: e3b9 c1be 2cc1 40bc b572 1b3c 2c19 653b
000002a0: 5b0a efbd e1ca d4bd 879f 9d3d 690a 833e
000002b0: 8b24 80bf 9bf8 49be 1c01 e5bd f5b6 d4be
000002c0: aa10 d3bd f992 9cbe 98d6 92bc 64ba 063d
000002d0: ccd6 96bd 3664 953d 6416 843e 4090 793c
000002e0: 6d64 91bc 5978 173e 9362 2fbe 32aa 06be
000002f0: 92f3 53be 9e38 e53c 8002 4d3e b61e 64bf
00000300: bc8c d2be 5ae2 12be e320 fbbe ee21 cd3c
00000310: 61d9 cabe ad4d 863e 147b c2be 0089 633d
00000320: d356 38be 00fa 80be e018 28be 8549 003e
00000330: 8fa4 7bbe 7a6a 43bd 536a aebd cbba 133e
00000340: 6f33 073d 9419 73bf d1a0 43bd 2b18 5fbe
00000350: b01a 25be b13c 923e 61bd 42bd 3a96 a03d
00000360: c37e 1fbe 42e7 1cbe f927 cfbd 89da 7dbe
00000370: b74b 7bbe 934b 35be 871c 2abe 37e1 35bd
00000380: 225f 4abe 2328 01be dc46 7abd bdff 46bd
00000390: 2cfe cb3d 7e2c 9b3d e424 d6bc d035 ee3d
000003a0: 78c7 943d 2e7d f33c ab6c 7d3d b8d6 a73d
000003b0: 9c26 f73c adce d33d a2c4 343e 894f 513c
000003c0: 9cc7 163e 91b4 043d 988d f13c 95e1 a13d
000003d0: bec8 12be 8dc5 fa3d 1826 9d3d b40b 613e
000003e0: 6407 753c 03ea 7cbd 6e92 153e c33b 82bd
000003f0: beef 253e 8438 c8bd 1948 643e c196 18be

model.decoder.6.bias f4 [8]
0.42061943 -0.1764069 0.20823039 -0.0756251 -0.23088525 0.11341006 -0.054438453 -0.1635469
00000000: 6e5b d73e 03a4 34be 593a 553e 55e1 9abd
00000010: 2f6d 6cbe 8943 e83d dbfa 5ebd d778 27be

model.decoder.8.weight f4 [8, 92, 4, 4]
0.020025132 -0.108837575 -0.14829482 -0.11837066 -0.21563998 -0.5932315 -0.4874177 -0.1296833
-0.19214632 -0.64173055 -0.755775 -0.29356986 -0.20342456 -0.17857276 -0.3014839 -0.0043965196
-0.09417906 -0.020966902 -0.0438081 -0.08926001 -0.039439756 -0.015933389 -0.03558352 -0.0851704
-0.0315758 -0.13204795 -0.20279396 -0.029808626 -0.14100589 -0.043274872 0.007269618 -0.0061714128
-0.0037750192 -0.01297062 -0.021131646 -0.00024787785 -0.0027702048 -0.00038251697 -0.0037297404 -0.03222158
-0.017633766 -0.015245877 -0.021970846 -0.008368371 -0.006875511 0.0030837827 0.013384816 -0.019722437
-0.013848496 -0.04397716 -0.04169274 -0.031269446 -0.07203712 -0.04189981 -0.0403369 -0.04615015
-0.02348587 -0.019659366 -0.013230332 -0.011608213 -0.055819415 -0.032501917 -0.048380006 -0.04344894
-0.01802272 -0.21891668 -0.19114776 -0.006533197 -1.1608696 -0.21169734 -0.09674424 -0.021026857
-0.89560676 -0.19914171 -0.5171967 -0.12778206 -0.033527087 -0.06265696 -0.14232075 -0.030626457
-0.04540385 -0.03746596 -0.019691033 -0.037560564 -0.0062961904 -0.03679638 -0.018938784 -0.031035133
-0.031313553 -0.028543754 -0.038780663 -0.046283633 -0.03305145 -0.043717813 -0.0063919276 -0.0121322805
-0.028757479 -0.0321939 -0.014903056 0.009106463 -0.05606216 -0.051688146 -0.044782404 -0.08656678
-0.016358843 -0.0051124855 -0.03212952 -0.018779747 0.004641223 -0.004324318 -0.01565484 -0.0078786835
-0.014063017 -0.035353214 -0.013596192 -0.017908571 -0.031679615 -0.022605129 -0.0036723898 0.008921769
0.0047267717 -0.04223837 -0.00093897054 -0.03681382 -0.018287472 -0.018744053 -0.0030637456 -0.029053792
-0.06641259 -0.07684976 -0.060629167 -0.05256408 -0.044683628 -0.04852388 -0.057150662 -0.09424647
-0.04388098 -0.051006872 -0.0901723 -0.034557607 -0.07098177 -0.06745608 -0.07466594 -0.021997025
-0.10929415 -0.04981016 -0.04778219 -0.082380116 -0.07591561 -0.10087388 -0.09416868 -0.0851568
0.006076606 -0.08437666 -0.09579565 -0.078838624 -0.047638353 -0.11300121 -0.02171983 -0.01154634
-0.011659122 -0.019893976 0.005454073 0.006384961 0.008499812 0.0071877195 -0.019247524 -0.020603325
-0.036468375 -0.0374339 -0.01678208 -0.02516457 -0.02873904 -0.018075123 -0.023140397 0.0021424547
-0.13539007 -0.49552795 -0.6223824 -0.14808244 0.19793105 0.29318956 -0.53506386 0.021999009
0.13482894 -0.356868 -0.86633736 0.30957526 -0.02974716 -0.3675565 -0.7405847 -0.13338283
0.018072775 0.12374653 -0.57111305 -0.13326347 0.06458357 -0.4393523 -0.24022792 0.4676753
-0.23431702 -0.34869388 -0.1824758 -0.5377036 -0.3685041 -0.2627132 -0.5577419 -0.49301544
0.0088334195 -0.044050664 -0.09259178 0.0013775547 -0.038394097 -0.025892753 -0.09158519 -0.028886873
-0.09470553 -0.043045048 -0.09163051 -0.019280866 -0.09636442 0.0017831643 -0.107912615 -0.028222201
-0.09699878 -0.08222945 -0.046351396 -0.033759113 -0.055757113 -0.060860038 -0.08184039 -0.042919252
-0.068110794 -0.07025357 -0.09503435 -0.041535273 -0.08292553 -0.07271833 -0.0693666 -0.077627055
-0.1638507 -0.38983572 -0.13841568 -0.2280182 0.116383 -0.85020083 0.12147541 -0.7869725
0.09215326 -0.86656535 -0.35644743 -0.5019162 -0.10429534 -0.9838058 -0.19236404 -0.025139902
00000000: bf0b a43c 3ce6 debd 99da 17be 516c f2bd
00000010: bad0 5cbe 05de 17bf d08e f9be b3cb 04be
00000020: 01c2 44be 7448 24bf 787a 41bf ca4e 96be
00000030: 874e 50be c7db 36be 195c 9abe ae10 90bb
00000040: f3e0 c0bd c8c2 abbc 1f70 33bd f4cd b6bd
00000050: 958b 21bd bd86 82bc 06c0 11bd d26d aebd
00000060: a055 01bd 9437 07be 38a9 4fbe 3831 f4bc
00000070: d963 10be fe40 31bd fa35 ee3b 9039 cabb
00000080: 5066 77bb b982 54bc 461c adbc 9af5 81b9
00000090: 538c 35bb 8f8c c8b9 a96e 74bb c7fa 03bd
000000a0: b074 90bc d8c9 79bc 34fc b3bc 7e1b 09bc
000000b0: f74b e1bb 4a19 4a3b fd4b 5b3c f390 a1bc
000000c0: cde4 62bc 6521 34bd 02c6 2abd 6414 00bd
000000d0: 3388 93bd 239f 2bbd 4e38 25bd f107 3dbd
000000e0: 7065 c0bc ae0c a1bc 09c4 58bc 6030 3ebc
000000f0: e6a2 64bd bb20 05bd 1d2a 46bd 84f7 31bd
00000100: 62a4 93bc b22b 60be 3dbc 43be 6e14 d6bb
00000110: 6097 94bf 30c7 58be d821 c6bd 8440 acbc
00000120: 7c46 65bf ceeb 4bbe 0167 04bf 4dd9 02be
00000130: b353 09bd 4b52 80bd 88bc 11be 56e4 fabc
00000140: 63f9 39bd e875 19bd 174f a1bc 1bd9 19bd
00000150: 4650 cebb cdb7 16bd 8225 9bbc 643d febc
00000160: a442 00bd 97d4 e9bc 79d8 1ebd e893 3dbd
00000170: f560 07bd 7311 33bd 6073 d1bb 79c6 46bc
00000180: ce94 ebbc c0dd 03bd f32b 74bc 4633 153c
00000190: 6fa1 65bd f3b6 53bd c16d 37bd ed49 b1bd
000001a0: fb02 86bc a386 a7bb 3e9a 03bd fcd7 99bc
000001b0: 6615 983b 02b3 8dbb 943e 80bc 9815 01bc
000001c0: 9268 66bc 88ce 10bd 90c2 5ebc ffb4 92bc
000001d0: 7cc2 01bd 642e b9bc 7aac 70bb 9d2c 123c
000001e0: 09e3 9a3b 2402 2dbd 3f25 76ba 17ca 16bd
000001f0: 9ccf 95bc 218d 99bc 1fc9 48bb 3802 eebc
00000200: 5303 88bd 6863 9dbd 4a56 78bd 6f4d 57bd
00000210: 2e06 37bd fac0 46bd d016 6abd 4b04 c1bd
00000220: 8bbc 33bd 95ec 50bd 41ac b8bd 478c 0dbd
00000230: e45e 91bd 6a26 8abd 75ea 98bd 1b33 b4bc
00000240: 9cd5 dfbd bd05 4cbd 42b7 43bd e8b6 a8bd
00000250: a579 9bbd f796 cebd 82db c0bd b066 aebd
00000260: 441e c73b accd acbd 8230 c4bd 2576 a1bd
00000270: 6f20 43bd 2e6d e7bd c9ed b1bc dc2c 3dbc
00000280: e705 3fbc b1f8 a2bc 15b8 b23b ef38 d13b
00000290: cc42 0b3c f686 eb3b fcac 9dbc 4ec8 a8bc
000002a0: dd5f 15bd 4a54 19bd 937a 89bc ee25 cebc
000002b0: 236e ebbc 4812 94bc ee90 bdbc 6d68 0c3b
000002c0: b2a3 0abe d7b5 fdbe 7454 1fbf eca2 17be
000002d0: 70ae 4a3e f11c 963e f2f9 08bf 4437 b43c
000002e0: 9910 0a3e 67b7 b6be 49c8 5dbf a680 9e3e
000002f0: 51b0 f3bc 5e30 bcbe f596 3dbf 8295 08be
00000300: 5b0d 943c d26e fd3d 7734 12bf 3876 08be
00000310: 6444 843d c9f2 e0be 4ffe 75be 2373 ef3e
00000320: cdf0 6fbe 0188 b2be f0da 3abe f1a6 09bf
00000330: 92ac bcbe 5882 86be 2cc8 0ebf 856c fcbe
00000340: 0cba 103c 786e 34bd c2a0 bdbd 118f b43a
00000350: 2143 1dbd 0a1d d4bc 0491 bbbd 2aa4 ecbc
00000360: f9f4 c1bd 0150 30bd c7a8 bbbd e8f2 9dbc
00000370: b65a c5bd 11b9 e93a 4a01 ddbd 3f32 e7bc
00000380: 4ca7 c6bd ea67 a8bd f6da 3dbd ff46 0abd
00000390: 9261 64bd 6048 79bd ef9b a7bd 19cc 2fbd
000003a0: ac7d 8bbd 1be1 8fbd 5fa1 c2bd e420 2abd
000003b0: dcd4 a9bd 59ed 94bd 1310 8ebd effa 9ebd
000003c0: 7ac8 27be 8c98 c7be d7bc 0dbe 9a7d 69be
000003d0: 365a ee3d c3a6 59bf 1ac8 f83d 0877 49bf
000003e0: d9ba bc3d 3ad7 5dbf 4780 b6be 957d 00bf
000003f0: cc98 d5bd b2da 7bbf 14fb 44be 32f2 cdbc

model.decoder.8.bias f4 [92]
0.18513547 -0.06958906 -0.030931352 -0.08196636 0.05800634 0.0047199605 -0.091396675 -0.00885296
-0.08340593 -0.054977413 -0.014192416 0.06931585 0.0310787 -0.08317861 -0.08948259 0.1767553
0.059001703 -0.089679584 0.05874601 0.12977676 -0.031203384 0.28619006 -0.033839524 -0.012673063
-0.07140843 -0.20623602 0.16635391 -0.057350226 -0.013527002 0.024522826 0.17523468 -0.15522109
-0.0053181103 0.12594542 0.11328253 -0.040625285 -0.009496625 -0.06484127 -0.051659025 0.2692652
-0.1348115 -0.016352484 -0.24383512 -0.15904896 -0.06503 -0.009221649 -0.14136098 -0.074511275
0.31181985 -0.07694638 -1.0140069 -0.16358206 0.02254139 -0.07913927 -0.080582015 0.03812819
0.118767895 -0.007953018 0.3854243 0.049089927 0.081491165 -0.12430639 0.07112336 0.18233126
0.13604613 -0.3970688 0.19653481 0.091243654 -0.037716463 0.04980952 0.2013236 0.12057371
-0.09357136 0.19259728 -0.018588921 -0.03424926 0.21193556 0.12945096 -0.008206616 -0.0031818599
-0.14966592 -0.00067680224 -0.08863414 0.18271701 0.02085593 -0.006148782 0.12630026 0.10426162
0.05127674 0.2237512 0.18133081 -0.09046459
00000000: 2794 3d3e b684 8ebd bf63 fdbc fbdd a7bd
00000010: 0e98 6d3d e6a9 9a3b 2e2e bbbd 010c 11bc
00000020: bad0 aabd ff2f 61bd 4f87 68bc 78f5 8d3d
00000030: c298 fe3c 8c59 aabd a642 b7bd 57ff 343e
00000040: c5ab 713d eea9 b7bd a89f 703d 33e4 043e
00000050: 3d9e ffbc 8187 923e 509b 0abd aea2 4fbc
00000060: 953e 92bd 892f 53be ae58 2a3e 12e8 6abd
00000070: 5ca0 5dbc 18e4 c83c b870 333e 47f2 1ebe
00000080: 8b43 aebb d6f7 003e ac00 e83d b366 26bd
00000090: bb97 1bbc 80cb 84bd 6a98 53bd 21dd 893e
000000a0: 070c 0abe a5f5 85bc eaaf 79be bbdd 22be
000000b0: 732e 85bd 6616 17bc efc0 10be 5e99 98bd
000000c0: daa6 9f3e 1096 9dbd faca 81bf 0e82 27be
000000d0: b9a8 b83c c513 a2bd 2f08 a5bd 4e2c 1c3d
000000e0: 953c f33d 604d 02bc 5556 c53e 8512 493d
000000f0: d7e4 a63d 5994 febd 20a9 913d 0cb5 3a3e
00000100: ad4f 0b3e 9a4c cbbe 6c40 493e f4dd ba3d
00000110: 947c 1abd 1105 4c3d c627 4e3e 59ef f63d
00000120: 57a2 bfbd 3938 453e cb47 98bc f448 0cbd
00000130: a305 593e cb8e 043e 0b75 06bc c086 50bb
00000140: 0642 19be 6e6b 31ba d185 b5bd 2b1a 3b3e
00000150: 0eda aa3c b97b c9bb db54 013e 1e87 d53d
00000160: 8f07 523d 091f 653e c9ae 393e 8045 b9bd

model.decoder.10.weight f4 [92, 1, 4, 3]
0.012552047 0.036692765 0.01887409 0.03207241 0.07893127 0.04737631 0.02605996 0.058913875
0.03329591 0.0058400747 0.014237352 0.0054009976 -0.11045281 0.15990517 0.19717269 0.0078821285
-0.12444758 0.012795117 -0.02256871 -0.050513323 0.1260591 -0.14096725 0.15241729 -0.19185913
-0.049612634 -0.18347593 -0.080861524 0.06432372 0.28171557 0.156299 -0.2122398 0.21265063
-0.23746715 -0.040102094 -0.2191673 0.20080005 -0.09773892 0.22097789 -0.07460501 -0.22629622
-0.030124808 0.19239992 0.101620026 0.2108262 -0.18496029 0.10831684 0.047185924 -0.16047278
-0.010889764 0.022998834 0.03600708 -0.0132072605 0.05139402 0.06497478 -0.018879928 0.030555038
0.050601542 -0.022671018 -0.009329005 0.016353816 -0.22122268 0.1420943 0.052481983 0.009313549
-0.18041576 0.20036231 0.19367735 -0.0171741 -0.047833025 0.1405757 -0.19724971 0.059049435
0.25428796 -0.09905954 0.27808118 -0.12725814 -0.25576854 -0.19979721 0.12785123 0.03350366
-0.011564364 -0.23130138 0.18350787 -0.0100834975 0.003673374 -0.23923798 0.123043865 -0.021827564
-0.19341853 0.21009593 -0.19653149 -0.18513653 0.25554067 0.050060272 -0.22319661 0.2698209
0.11313883 -0.07442984 -0.11156478 0.025103485 0.124048986 0.014258546 -0.13335986 0.032033466
0.16033533 0.06019221 -0.20462869 -0.021101868 0.07588495 -0.09540797 -0.049523674 0.2863102
0.014428688 0.005254584 0.12283066 -0.13506274 -0.08117605 0.010938019 0.10515289 -0.12036272
-0.22884043 -0.14370847 -0.17989153 -0.1981107 -0.23146689 -0.16495095 0.19462581 0.019608673
0.15632859 -0.20014791 -0.14447089 0.12606756 0.020563975 0.037734587 0.019468943 0.024541233
0.050554954 0.028527845 0.011531839 0.029838521 0.019384596 -0.0033954915 0.00724419 0.004375947
0.10031091 0.16598763 0.109320216 0.06602839 0.10678369 0.058132164 -0.056081515 -0.03567769
-0.04345399 -0.057959557 -0.07504815 -0.05499409 0.17891909 0.17783 -0.14847504 -0.15451834
0.12738247 -0.03688631 -0.1027928 0.08584698 -0.09870137 -0.039670166 0.014516069 -0.023719152
0.013245076 -0.22615336 0.23937048 -0.11333384 0.21526936 -0.10227021 -0.16767606 -0.15887664
-0.030540934 0.11414748 0.07142652 0.07366209 0.19788268 0.37564006 0.22944884 0.17004986
0.3188106 0.1545285 0.03556566 0.105133586 0.03932328 -0.02025402 0.024540659 0.010529999
-0.036564026 -0.09203065 -0.076612785 -0.0522064 -0.12121633 -0.09758082 -0.051066775 -0.08852259
-0.059634898 -0.015779825 -0.0339613 -0.022446942 -0.15687367 0.10721118 -0.19262023 -0.2982948
-0.058715858 -0.11424859 -0.11269494 -0.08788976 -0.007974633 -0.16306365 0.18143563 -0.16174823
0.011572852 0.019488066 0.006408489 0.028074136 0.043737084 0.016293174 0.031896114 0.04789316
0.019393027 0.016922614 0.0269322 0.012422825 -0.01116454 -0.02809709 -0.020863136 -0.033436384
-0.07011342 -0.04994569 -0.051381942 -0.097632095 -0.051298317 -0.03562449 -0.06091261 -0.022639487
-0.026841693 -0.040288433 0.012539471 0.093077146 -0.26491386 -0.062284227 -0.15746097 -0.11641108
0.2081166 0.2689886 0.14307973 -0.15048476 0.014540071 0.043498933 0.034115665 0.050844952
00000000: 1aa7 4d3c 274b 163d d69d 9a3c 5c5e 033d
00000010: b8a6 a13d a90d 423d b27b d53c ad4f 713d
00000020: 4b61 083d 195e bf3b c843 693c dafa b03b
00000030: 1535 e2bd 2ebe 233e a3e7 493e 0b24 013c
00000040: 5fde febd 9ca2 513c 04e2 b8bc 0fe7 4ebd
00000050: a315 013e b859 10be 4713 1c3e b876 44be
00000060: 9e36 4bbd 1de1 3bbe ba9a a5bd 28bc 833d
00000070: 063d 903e d80c 203e 6455 59be 16c1 593e
00000080: 972a 73be 1842 24bd 656d 60be 879e 4d3e
00000090: 582b c8bd 0748 623e 83ca 98bd 32ba 67be
000000a0: 4dc8 f6bc 7c04 453e 291e d03d d3e2 573e
000000b0: 3b66 3dbe 38d5 dd3d 0746 413d fa52 24be
000000c0: fb6a 32bc 0d68 bc3c 297c 133d 4463 58bc
000000d0: 8982 523d 7f11 853d 14aa 9abc 8f4e fa3c
000000e0: 9043 4f3d 92b8 b9bc afd8 18bc 70f8 853c
000000f0: 3388 62be 2b81 113e 59f7 563d db97 183c
00000100: e9be 38be c72b 4d3e 5b53 463e b3b0 8cbc
00000110: 90ec 43bd 14f3 0f3e d4fb 49be d2dd 713d
00000120: 0832 823e badf cabd a860 8e3e f54f 02be
00000130: 18f4 82be a497 4cbe 6feb 023e 223b 093d
00000140: 7578 3dbc 45da 6cbe 7de9 3b3e 4135 25bc
00000150: fdbc 703b cdfa 74be 6cfe fb3d b8cf b2bc
00000160: 820f 46be 6323 573e 8d3f 49be 6e94 3dbe
00000170: 3ad6 823e 000c 4d3d a78d 64be f725 8a3e
00000180: 55b5 e73d ac6e 98bd 137c e4bd d3a5 cd3c
00000190: 650d fe3d ad9c 693c 7d8f 08be 8635 033d
000001a0: f22e 243e 1b8c 763d 2f8a 51be d3dd acbc
000001b0: 9269 9b3d 4165 c3bd 56d9 4abd 4097 923e
000001c0: 4e66 6c3c a52e ac3b a48e fb3d e34d 0abe
000001d0: a13f a6bd 6035 333c 665a d73d bb80 f6bd
000001e0: 2555 6abe 5028 13be 7c35 38be 88dd 4abe
000001f0: a805 6dbe e7e8 28be fd4b 473e 5ea2 a03c
00000200: 9a14 203e 93f3 4cbe 2df0 13be db17 013e
00000210: c875 a83c 958f 1a3d 557d 9f3c b20a c93c
00000220: b612 4f3d 3ab3 e93c 0af0 3c3c ea6f f43c
00000230: 72cc 9e3c e586 5ebb ac60 ed3b 1b64 8f3b
00000240: ce6f cd3d a9f8 293e 47e3 df3d e439 873d
00000250: 68b1 da3d fe1b 6e3d bbb5 65bd c522 12bd
00000260: d0fc 31bd 0067 6dbd d8b2 99bd 7c41 61bd
00000270: 9136 373e 1119 363e d709 18be 0e3a 1ebe
00000280: 8d70 023e 1916 17bd 0885 d2bd 8bd0 af3d
00000290: f223 cabd 2f7d 22bd ced4 6d3c ab4e c2bc
000002a0: e001 593c bf94 67be 891d 753e 931b e8bd
000002b0: 926f 5c3e 0b73 d1bd 46b3 2bbe 8fb0 22be
000002c0: fb30 fabc 27c6 e93d 1148 923d 26dc 963d
000002d0: c2a1 4a3e e553 c03e a3f4 6a3e 8d21 2e3e
000002e0: 253b a33e b83c 1e3e 4cad 113d 4750 d73d
000002f0: 7311 213d c2eb a5bc 7e09 c93c 0486 2c3c
00000300: 29c4 15bd 917a bcbd 2ae7 9cbd 61d6 55bd
00000310: 4440 f8bd 74d8 c7bd 652b 51bd 554b b5bd
00000320: b943 74bd b144 81bc 011b 0bbd a6e2 b7bc
00000330: 7ea3 20be 8991 db3d 3d3e 45be 19ba 98be
00000340: 0a80 70bd 2afb e9bd 9bcc e6bd 8cff b3bd
00000350: 09a8 02bc 28fa 26be 43ca 393e 54a1 25be
00000360: 0f9c 3d3c 70a5 9f3c 4dfe d13b bbfb e53c
00000370: a825 333d 4379 853c 80a5 023d 9e2b 443d
00000380: 20de 9e3c 4ba1 8a3c eba0 dc3c 1b89 4b3c
00000390: 7aeb 36bc de2b e6bc 2be9 aabc 97f4 08bd
000003a0: a097 8fbd da93 4cbd df75 52bd 56f3 c7bd
000003b0: 2f1e 52bd fcea 11bd 807f 79bd 7276 b9bc
000003c0: 1ce3 dbbc 7c05 25bd 5a72 4d3c 3b9f be3d
000003d0: caa2 87be bf1d 7fbd 733d 21be ef68 eebd
000003e0: 851c 553e e0b8 893e 7e83 123e ad18 1abe
000003f0: 7a39 6e3c f02b 323d debc 0b3d cc42 503d
